
(VOICE-EMOTION-ANALYSIS) C:\Users\ranja\PycharmProjects\VOICE-EMOTION-ANALYSIS>python Main.py
Using TensorFlow backend.

 Working on CNN Model

2019-11-21 18:25:39.180872: I tensorflow/core/platform/cpu_feature_guard.cc:142] Your CPU supports instructions that this TensorFlow binary was not compiled to use: AVX2
Model: "sequential_1"
_________________________________________________________________
Layer (type)                 Output Shape              Param #
=================================================================
conv1d_1 (Conv1D)            (None, 40, 128)           768
_________________________________________________________________
activation_1 (Activation)    (None, 40, 128)           0
_________________________________________________________________
dropout_1 (Dropout)          (None, 40, 128)           0
_________________________________________________________________
max_pooling1d_1 (MaxPooling1 (None, 5, 128)            0
_________________________________________________________________
conv1d_2 (Conv1D)            (None, 5, 128)            82048
_________________________________________________________________
activation_2 (Activation)    (None, 5, 128)            0
_________________________________________________________________
dropout_2 (Dropout)          (None, 5, 128)            0
_________________________________________________________________
flatten_1 (Flatten)          (None, 640)               0
_________________________________________________________________
dense_1 (Dense)              (None, 4)                 2564
_________________________________________________________________
activation_3 (Activation)    (None, 4)                 0
=================================================================
Total params: 85,380
Trainable params: 85,380
Non-trainable params: 0
_________________________________________________________________
-------------------------------Finished Preparing Dataset-------------------------------
Train on 1478 samples, validate on 728 samples
Epoch 1/1000
1478/1478 [==============================] - 1s 358us/step - loss: 5.1749 - accuracy: 0.2909 - val_loss: 1.3706 - val_accuracy: 0.4451
…
           2       0.86      0.76      0.81       134
           3       0.89      0.91      0.90       255

    accuracy                           0.88       728
   macro avg       0.88      0.87      0.88       728
weighted avg       0.88      0.88      0.88       728

[[184   4   4   6]
 [  8 125   2   6]
 [  8   8 102  16]
 [  4   8  10 233]]

 Working on LSTM Model

Model: "sequential_2"
_________________________________________________________________
Layer (type)                 Output Shape              Param #
=================================================================
lstm_1 (LSTM)                (None, 100)               40800
_________________________________________________________________
dropout_3 (Dropout)          (None, 100)               0
_________________________________________________________________
dense_2 (Dense)              (None, 100)               10100
_________________________________________________________________
dense_3 (Dense)              (None, 4)                 404
_________________________________________________________________
activation_4 (Activation)    (None, 4)                 0
=================================================================
Total params: 51,304
Trainable params: 51,304
Non-trainable params: 0
_________________________________________________________________
-------------------------------Finished Preparing Dataset-------------------------------
Train on 1478 samples, validate on 728 samples
Epoch 1/1000
1478/1478 [==============================] - 2s 1ms/step - loss: 1.2981 - accuracy: 0.4222 - val_loss: 1.2343 - val_accuracy: 0.4464
…
