
(VOICE-EMOTION-ANALYSIS) C:\Users\ranja\PycharmProjects\VOICE-EMOTION-ANALYSIS>python Main.py
Using TensorFlow backend.

 Working on CNN Model

2019-11-24 15:25:19.415619: I tensorflow/core/platform/cpu_feature_guard.cc:142] Your CPU supports instructions that this TensorFlow binary was not compiled to use: AVX2
Model: "sequential_1"
_________________________________________________________________
Layer (type)                 Output Shape              Param #
=================================================================
conv1d_1 (Conv1D)            (None, 40, 128)           768
_________________________________________________________________
activation_1 (Activation)    (None, 40, 128)           0
_________________________________________________________________
dropout_1 (Dropout)          (None, 40, 128)           0
_________________________________________________________________
max_pooling1d_1 (MaxPooling1 (None, 5, 128)            0
_________________________________________________________________
conv1d_2 (Conv1D)            (None, 5, 128)            82048
_________________________________________________________________
activation_2 (Activation)    (None, 5, 128)            0
_________________________________________________________________
dropout_2 (Dropout)          (None, 5, 128)            0
_________________________________________________________________
max_pooling1d_2 (MaxPooling1 (None, 2, 128)            0
_________________________________________________________________
flatten_1 (Flatten)          (None, 256)               0
_________________________________________________________________
dense_1 (Dense)              (None, 4)                 1028
_________________________________________________________________
activation_3 (Activation)    (None, 4)                 0
=================================================================
Total params: 83,844
Trainable params: 83,844
Non-trainable params: 0
_________________________________________________________________
-------------------------------Finished Preparing Dataset-------------------------------
Train on 1478 samples, validate on 728 samples
Epoch 1/1000
1478/1478 [==============================] - 1s 375us/step - loss: 6.9604 - accuracy: 0.3227 - val_loss: 2.8868 - val_accuracy: 0.4231
…
           2       0.84      0.79      0.82       134
           3       0.92      0.93      0.92       255

    accuracy                           0.90       728
   macro avg       0.89      0.89      0.89       728
weighted avg       0.90      0.90      0.90       728

[[194   2   2   0]
 [  4 119   6  12]
 [  8  10 106  10]
 [  6   0  12 237]]

 Working on LSTM Model

Model: "sequential_2"
_________________________________________________________________
Layer (type)                 Output Shape              Param #
=================================================================
lstm_1 (LSTM)                (None, 100)               40800
_________________________________________________________________
dropout_3 (Dropout)          (None, 100)               0
_________________________________________________________________
dense_2 (Dense)              (None, 100)               10100
_________________________________________________________________
dense_3 (Dense)              (None, 4)                 404
_________________________________________________________________
activation_4 (Activation)    (None, 4)                 0
=================================================================
Total params: 51,304
Trainable params: 51,304
Non-trainable params: 0
_________________________________________________________________
-------------------------------Finished Preparing Dataset-------------------------------
Train on 1478 samples, validate on 728 samples
Epoch 1/1000
1478/1478 [==============================] - 2s 1ms/step - loss: 1.2994 - accuracy: 0.4087 - val_loss: 1.2334 - val_accuracy: 0.4368
…
